netG_epoch_60.pth (torch_old, 81522 bytes, 22 tensors)

l1.0.weight f4 [96, 40]
0	0x3e0012e7	0.1250721
1	0xbd22357d	-0.03960179
2	0x3cc77a4c	0.024350308
3	0xbd386398	-0.045016855
4	0x3d46dc76	0.04855009
5	0x3e272480	0.16322517
6	0x3d0a5dc4	0.033780828
7	0x3dac0d2f	0.08400952
8	0xbce27d9f	-0.027647791
9	0xbc8ddf3a	-0.017318357
10	0xbcca2ab4	-0.024678566
11	0xbd21a568	-0.039464384
12	0x3df8105e	0.12112497
13	0x3dd33c1b	0.103141986
14	0xbcd349ca	-0.025792021
15	0x3d0a692f	0.033791717
16	0xbdbbfcc7	-0.09179073
17	0x3e2e5387	0.1702405
18	0x3a9a5460	0.0011774413
19	0x3d2bfa74	0.041986898
20	0x3e06f331	0.13178708
21	0x3cc12773	0.023578381
22	0xbdc08435	-0.094002165
23	0xbd37c219	-0.04486284
24	0xbab74bf6	-0.001398443
25	0xbdc0d3ff	-0.09415435
26	0xbd52366e	-0.05132144
27	0xbbda787c	-0.006667195
28	0x3cd93bfe	0.026517864
29	0x3de1e5a8	0.110301316
30	0xbdff8b71	-0.12477768
31	0xbd98fdc8	-0.0747028
32	0x3e1f8ae1	0.15580322
33	0xbdf4d08c	-0.1195384
34	0x3e2ab94a	0.16672245
35	0x3d4dfc76	0.050289594
36	0xbb6cd5fd	-0.003613829
37	0x3d72e186	0.059297107
38	0xbd94403d	-0.07238815
39	0x3d7dac46	0.06193187
40	0x3e1e4672	0.1545656
41	0x3c390438	0.01129251
42	0x3bf39659	0.0074336943
43	0x3d633cfd	0.055478085
44	0xbdcb94a7	-0.099404626
45	0xbdeb2476	-0.11481564
46	0xbe16ecc0	-0.1473875
47	0x3da98588	0.08277422
48	0xbc5c58cf	-0.013448908
49	0x3e18bdb8	0.14916122
50	0xbd47ee24	-0.048811093
51	0xbd7e89d1	-0.06214315
52	0x3da1cea2	0.0790074
53	0x3da8458f	0.08216392
54	0xbd2508d5	-0.040291626
55	0x3c262b78	0.0101422
56	0x3da4ec63	0.080529
57	0x3d89a822	0.06721522
58	0xbd9b7f14	-0.075925976
59	0xbd5d2017	-0.05398568
60	0x3cbf6c59	0.023367094
61	0xbd9e2e10	-0.077236295
62	0xbe1e8602	-0.15480807
63	0x3e373264	0.17890316
64	0xbd692ab5	-0.056925494
65	0x3b88d998	0.00417633
66	0xbdfac983	-0.122454666
67	0x3d907acc	0.07054672
68	0x3d912c8e	0.07088576
69	0x3d95202f	0.07281529
70	0x3c796e69	0.015224078
71	0x3def7a7c	0.11693284
72	0xbedc6257	-0.43043777
73	0x3e4b88a9	0.1987635
74	0xbe4b60a2	-0.19861081
75	0xbe649b72	-0.22324923
76	0xbe7a0a30	-0.24417949
77	0x3c913336	0.017724615
78	0x3e3b839a	0.18311921
79	0x3d9bb1bb	0.07602259
80	0xbde85cce	-0.11345826
81	0x3def7197	0.116915874
82	0x3c9efa42	0.019406442
83	0x3b037541	0.0020058902
84	0xbd9a17de	-0.075240836
85	0x3d98adc9	0.07455022
86	0x3d749a19	0.05971727
87	0x3c0b7a4e	0.008513046
88	0x3d55128d	0.052019645
89	0x3d9690db	0.07351848
90	0xbdd4efa2	-0.10397269
91	0xbe0055bc	-0.12532705
92	0xbd977b26	-0.073965356
93	0xbd9efde7	-0.07763272
94	0xbd7a019c	-0.06103669
95	0x3e0b39e9	0.1359631
96	0xbccb3d63	-0.024809545
97	0xbaf1c728	-0.0018446194
98	0x3d8d9632	0.06913413
99	0x3c8b1ba4	0.016980954
100	0x3d98e592	0.07465662
101	0xbd40fb3d	-0.0471146
102	0x3d0786f2	0.03308768
103	0x3d76f04f	0.06028777
104	0xbd2778dd	-0.04088675
105	0x3d1d5037	0.038406577
106	0x3cb31df9	0.021864878
107	0x3db9ac90	0.09066117
108	0xbdb1d4ba	-0.086831525
109	0x3ddb39fa	0.107044175
110	0x3db0b50f	0.08628284
111	0xbe1d3741	-0.15353109
112	0x3d856ff2	0.065154925
113	0xbd89bc6f	-0.06725394
114	0x3e00fbfa	0.12596121
115	0xbd574fec	-0.052566454
116	0xbda9c5ad	-0.08289657
117	0xbd8ff0e9	-0.07028372
118	0x3db98cbf	0.09060048
119	0xbe35568d	-0.17708798
120	0x3d8600a0	0.06543088
121	0x3d21416e	0.03936904
122	0x3d618176	0.055055104
123	0xbdd8e46e	-0.105904445
124	0xbd265abb	-0.04061387
125	0xbdbe80db	-0.09301921
126	0xbd8a0176	-0.0673856
127	0x3d5064bf	0.05087733
128	0xbd33107b	-0.04371689
129	0x3dbeb49d	0.09311793
130	0xbcf2c9e0	-0.029637277
131	0x3d0e0879	0.03467605
132	0x3c1364a5	0.0089961635
133	0x3c31964f	0.010839059
134	0xbe0c83cf	-0.13722156
135	0x3c2550e9	0.010090091
136	0xbe1f6a5f	-0.15567921
137	0xbce52412	-0.027971301
138	0xbdc00403	-0.09375765
139	0xbcf69371	-0.030099602
140	0xb97884dd	-0.00023700618
141	0xbdfcd78a	-0.12345798
142	0xbdfe4b00	-0.12416649
143	0xbcd0fb35	-0.02551041
144	0x3e034994	0.12821037
145	0x3d81ef1d	0.06344435
146	0xbca50e75	-0.020148495
147	0x3da24625	0.07923535
148	0xbbbb19b6	-0.005709852
149	0xbdcbe688	-0.0995608
150	0xbc970cd6	-0.018438738
151	0x3dc3523a	0.09537168
152	0xbc1328a3	-0.0089818565
153	0xbe7fa72b	-0.24966113
154	0xbcdae784	-0.026721723
155	0xbe1b3c5e	-0.15159747
156	0xbd062c16	-0.032756887
157	0xbe1bd86c	-0.15219277
158	0xbdb8b211	-0.090183385
159	0xbe236cb4	-0.15959436
160	0x3d6e3e0a	0.058164634
161	0x3ce3b427	0.027795864
162	0x3cba9ef3	0.022780871
163	0xbc5571d4	-0.013027627
164	0xba490936	-0.0007668914
165	0x3dbadede	0.0912454
166	0xbdc7d954	-0.09758249
167	0x3d3d2074	0.046173528
168	0x3db70902	0.08937265
169	0x3c367417	0.011136076
170	0x3d9330da	0.07187052
171	0xbde72bc0	-0.112876415
172	0xbb9fbd1e	-0.0048748394
173	0xbd9eed4f	-0.07760107
174	0xbdb569bf	-0.0885806
175	0x3d605052	0.0547641
176	0xbda0718d	-0.07834158
177	0x3da2e358	0.07953519
178	0x3db687a3	0.089125894
179	0xbdc90772	-0.09815873
180	0xbcc8756b	-0.024470052
181	0xbd3c2312	-0.045931883
182	0xba02e0df	-0.0004992615
183	0x3d6f209a	0.0583807
184	0x3c929923	0.017895287
185	0x3ce08cf3	0.02741096
186	0xbc84e806	-0.016223919
187	0x3d54c3fc	0.051944718
188	0xbd3e60fd	-0.046479214
189	0xbc22afe5	-0.009929632
190	0x3e342f25	0.17596109
191	0x3e83fbdd	0.25778094
192	0x3d088b3a	0.0333359
193	0x38da28f9	0.00010402682
194	0xb9a25d52	-0.00030968577
195	0xbd9d080f	-0.07667553
196	0x3e4f1306	0.202221
197	0xbe2c656a	-0.16835561
198	0x3d98a5fb	0.07453533
199	0xbe634365	-0.22193678
200	0x3e10fea9	0.14159645
201	0x3c6aa958	0.014322601
202	0xbd788236	-0.060671054
203	0xbdc19967	-0.09453087
204	0xbd6abb93	-0.05730779
205	0xbdaddf11	-0.08489812
206	0x3d811cc5	0.063043155
207	0xbe420db0	-0.18950534
208	0xbdc0a104	-0.09405711
209	0x3d2fd35c	0.042926177
210	0x3e0a1b43	0.13486962
211	0x3d8d36b9	0.06895203
212	0x3d3e8aef	0.046519216
213	0xba242bae	-0.00062626123
214	0xbd4de31e	-0.050265424
215	0xbdfb1d0c	-0.122613996
216	0x3c96d137	0.018410308
217	0xbcb3da6d	-0.02195474
218	0x3d93ced6	0.07217185
219	0x3ddcb893	0.10777392
220	0x3d3a0840	0.045418024
221	0xbe097c47	-0.13426314
222	0x3cabee58	0.020987675
223	0x3d9cac54	0.076500565
224	0xbd8f9ecb	-0.07012709
225	0xbd074e96	-0.03303393
226	0x3d7ff838	0.06249258
227	0xbdb4f11b	-0.0883505
228	0x3d9f508c	0.07779035
229	0x3dc534e6	0.0962923
230	0xbe01b55e	-0.12666842
231	0x3db9ed35	0.09078447
232	0xbe12b893	-0.14328222
233	0x3e360495	0.17775185
234	0xbccf78e9	-0.02532621
235	0xbe09380b	-0.13400285
236	0x3e05520b	0.13019578
237	0x3e2ac8d6	0.16678175
238	0xbe23d200	-0.15998077
239	0x3def7124	0.11691502
240	0xbdd7deba	-0.105405286
241	0xbe011452	-0.12605408
242	0xbdd8c6d6	-0.105848
243	0xbe21b5c6	-0.15791997
244	0x3dc61ba0	0.09673238
245	0x3bdf93de	0.006823047
246	0xbda5da83	-0.080983184
247	0x3e0ada2d	0.1355979
248	0x3cb6e13d	0.022324199
249	0x3de53e99	0.1119358
250	0xbd23464c	-0.039861962
251	0xbdfade6f	-0.12249457
252	0x3d826981	0.063677795
253	0xbd440cab	-0.047863644
254	0xbdb65ed9	-0.089048095
255	0x3e01907b	0.12652771

l1.0.bias f4 [96]
0	0x3de39582	0.11112501
1	0x3e133744	0.14376551
2	0x3d36570e	0.044516616
3	0x3e3f1ac2	0.18662551
4	0x3de94582	0.11390211
5	0xbe1a0592	-0.15041187
6	0xbd95d1d6	-0.07315414
7	0xbe693ee6	-0.227779
8	0x3d2c174a	0.042014398
9	0x3e17f447	0.14839278
10	0x3d671bf3	0.05642314
11	0x3d5aca07	0.053415325
12	0x3d2ce6ca	0.042212285
13	0xbd44717c	-0.04795979
14	0xbd898d0e	-0.06716357
15	0x3d0f9ede	0.035063617
16	0x3c964cdb	0.018347194
17	0xbdf9b26e	-0.12192236
18	0xbca04e17	-0.019568486
19	0xbbb081b8	-0.0053865574
20	0xbe2e5a3c	-0.17026609
21	0xbdee6b84	-0.11641601
22	0xbd0b9761	-0.034079913
23	0x3e3d078d	0.18459912
24	0xbd5ebeae	-0.054381065
25	0xbb56090d	-0.0032659203
26	0x3d8beb88	0.068320334
27	0x3dd88168	0.10571557
28	0xbd9baf79	-0.07601828
29	0x3e265535	0.16243441
30	0xbe2f2c5c	-0.17106766
31	0xbe451456	-0.19246039
32	0x3e1e7930	0.15475917
33	0xbcd84265	-0.026398847
34	0xbdccf200	-0.10007095
35	0x3cd75622	0.026286189
36	0xbda32494	-0.07965961
37	0x3c8f61fc	0.017502777
38	0xbdd8c3b9	-0.10584206
39	0xbd074d6f	-0.03303283
40	0x3e19f418	0.1503452
41	0x3e3a24ab	0.1817805
42	0xbde8e0e6	-0.11371021
43	0xbd25955b	-0.04042564
44	0x3e3a2f9f	0.18182229
45	0xbdcdd979	-0.10051245
46	0x3de9d9d5	0.11418501
47	0xbc9be692	-0.019030843
48	0xbdba740d	-0.09104166
49	0xbddc8372	-0.10767259
50	0x3e05219b	0.130011
51	0x3e2a21b8	0.16614425
52	0x3ca28675	0.019839505
53	0xbe3ee2f9	-0.1864127
54	0xbdb1364b	-0.08652934
55	0x3ddf1280	0.108922005
56	0x3d4834ba	0.04887841
57	0x3cfbcb78	0.03073667
58	0xbdd2a8c4	-0.10286096
59	0x3e3d7676	0.1850222
60	0x3dd09b99	0.10185928
61	0xbc64bd5e	-0.013961164
62	0xbe4aaa2b	-0.19791476
63	0xbe5f6647	-0.2181636
64	0x3d94da28	0.072681725
65	0xbb5e1fd0	-0.0033893473
66	0x3d01f7f1	0.031730596
67	0xbc1bd74b	-0.009511779
68	0xbdd5ff23	-0.10449054
69	0xbd9e8381	-0.07739926
70	0xbda95742	-0.08268596
71	0x3d15dc83	0.03658725
72	0x3dd92515	0.10602776
73	0x3d548bd0	0.051891148
74	0x3dfb15a9	0.12259991
75	0xbda196db	-0.078901015
76	0x3e1ddb60	0.15415716
77	0x3e4c43fa	0.19947806
78	0x3dcd30fe	0.1001911
79	0x3d677f48	0.05651787
80	0xbc5aa345	-0.013344591
81	0x3e332fbb	0.17498676
82	0x3d3328dc	0.04374014
83	0x3e1ac594	0.15114433
84	0x3df3cec8	0.11904675
85	0x3cf55926	0.029949736
86	0xbd8d39bd	-0.06895778
87	0xbe1682d1	-0.1469834
88	0x3c9ca05a	0.01911943
89	0x3dba9801	0.09111024
90	0xbde26405	-0.110542335
91	0xbdb37b00	-0.08763695
92	0x3c8c4ed4	0.017127432
93	0xbdf3aa7e	-0.11897753
94	0x3d8d0bf6	0.06887047
95	0xbe301ec2	-0.17199233

main1.0.weight f4 [24, 24, 4, 4]
0	0xbc7cad81	-0.015422226
1	0x3bb78a83	0.0056012287
2	0xbd12705c	-0.035751686
3	0xbc416e65	-0.011806105
4	0xbd0e3e7d	-0.034727562
5	0xbd06654a	-0.03281144
6	0x3a18dfb5	0.0005831675
7	0xbd22141d	-0.039569963
8	0xbc436913	-0.011926907
9	0xbbbb403b	-0.005714444
10	0x3c33ea7a	0.010981197
11	0xbc825087	-0.015907539
12	0xbc585fb7	-0.013206414
13	0xbe097bdc	-0.13426155
14	0xbc89e187	-0.016831173
15	0x3d929834	0.07157937
16	0x3bd3a3a4	0.0064587165
17	0xbbee4d32	-0.007272386
18	0xbbb582d6	-0.0055392785
19	0xbcb6dc74	-0.022321917
20	0xbd1eed6b	-0.03880064
21	0x3baae01e	0.005214705
22	0x3ca7fc1e	0.020505961
23	0x3d0beb20	0.03415978
24	0xbc75022c	-0.014954131
25	0xbd29f083	-0.041489135
26	0x3cca9a5c	0.024731807
27	0x3d7139d6	0.058893047
28	0xbd6ccc7e	-0.057812206
29	0xbc85b57a	-0.016321886
30	0x3bb0929c	0.005388571
31	0xbd0befcc	-0.034164235
32	0xbc8f77e4	-0.017513223
33	0xbdafa4f6	-0.08576386
34	0x3cc371fa	0.02385806
35	0xbd317b8f	-0.043330725
36	0x3cd7104b	0.026252886
37	0xbab34f50	-0.0013680253
38	0x3cdbb07d	0.026817555
39	0xbc12829d	-0.008942273
40	0xbdb74933	-0.089495085
41	0x3d327c57	0.04357561
42	0x3d039707	0.032126453
43	0x3cde59bc	0.027142398
44	0xbcf59759	-0.029979395
45	0x3ccd05bd	0.02502715
46	0x3c3c0239	0.011475139
47	0xbceda770	-0.029010504
48	0x3d339075	0.043838937
49	0xbd21060c	-0.039312407
50	0x3d1b0a89	0.037851844
51	0xbd1f7f9a	-0.03894005
52	0x3c6b2cd0	0.014353946
53	0x3c8959e3	0.016766494
54	0x3c02d8ac	0.007986229
55	0x3d037a2b	0.03209893
56	0xbcbf4971	-0.02335045
57	0xbcb77f48	-0.02239956
58	0xbc65369f	-0.013990073
59	0xbb93e55f	-0.004513427
60	0x3d6dafb7	0.058028903
61	0xbcb4f611	-0.02208999
62	0xbba196bb	-0.0049312986
63	0xbca57b80	-0.020200491
64	0x3c64b374	0.013958801
65	0xbc7d1e53	-0.015449124
66	0xbdc92a12	-0.098224774
67	0x3c9e8b93	0.019353664
68	0x3ce00854	0.027347721
69	0xbc1fc4fb	-0.009751554
70	0x3cdbab5d	0.02681511
71	0xbb4fd9a4	-0.0031715417
72	0xbd1b24f9	-0.037877057
73	0x3cb3195f	0.021862684
74	0xbcda03ff	-0.026613234
75	0xbca119bb	-0.01966559
76	0xbd41c1a7	-0.047303822
77	0xb9b80398	-0.00035097892
78	0xbcd47aa1	-0.02593738
79	0x3cd6af61	0.026206674
80	0xbc3687e1	-0.0111407945
81	0x3ac72ff9	0.0015196792
82	0x3cb76d30	0.022390932
83	0xbd65a02e	-0.056060962
84	0xbd08196d	-0.033227373
85	0xbd12a471	-0.035801355
86	0xbc2db17b	-0.010601397
87	0xbd0da500	-0.034581184
88	0xbb71652a	-0.003683398
89	0xbb50585e	-0.0031790952
90	0x3cf67959	0.03008716
91	0xbdb50249	-0.088383265
92	0x3ce0947f	0.027414558
93	0xb9916abb	-0.00027736076
94	0xbc1b354e	-0.009473158
95	0xbcffcc15	-0.031225244
96	0xbc702f13	-0.014659661
97	0x3ccc0396	0.024904054
98	0x3c9c653f	0.019091247
99	0x3d7d4912	0.061837263
100	0x3cdc44fc	0.026888363
101	0x3a305822	0.0006727
102	0x3c404ae5	0.011736606
103	0x3c2e8342	0.0106514115
104	0x3d83dd0a	0.06438644
105	0xbccd68f5	-0.025074461
106	0xbb1f4f27	-0.0024308653
107	0x3d63efb2	0.055648513
108	0x3c9a5e83	0.018843895
109	0xbdcaed91	-0.099085934
110	0x3d1403fe	0.03613662
111	0x3d8d30e3	0.0689409
112	0xbcbaeba9	-0.02281745
113	0x3d4481b7	0.04797527
114	0xbc4a0be4	-0.0123319365
115	0x3d773f8f	0.06036335
116	0x3d46b83b	0.04851554
117	0x3ab006f1	0.0013429803
118	0x3b0b93fa	0.0021297918
119	0xbd1809a7	-0.03711858
120	0x3cc033ba	0.023462165
121	0xbcb58226	-0.022156786
122	0xbc11a89d	-0.008890298
123	0x3c1a2e17	0.009410403
124	0xbc087e59	-0.008330905
125	0x3c8a1fa9	0.0168608
126	0xbd1e3428	-0.03862396
127	0x3b85d3bd	0.004084079
128	0x3beae6b8	0.007168617
129	0x3cae05ba	0.021242965
130	0x3aedc8df	0.0018141529
131	0x3d563660	0.05229795
132	0xbd1adf38	-0.037810534
133	0xbc2b1765	-0.010442589
134	0xbd38806c	-0.045044348
135	0x3cb84897	0.022495551
136	0xbc29c3cd	-0.010361624
137	0xbcaf9232	-0.021432016
138	0xbbf3b5bd	-0.0074374364
139	0x3d4524b2	0.0481307
140	0xbc1ee024	-0.009696994
141	0xbbc24b31	-0.0059293737
142	0x3bea63a6	0.0071529923
143	0x3b704eda	0.0036668093
144	0x3cf205cf	0.029543785
145	0xbbb4ad87	-0.00551385
146	0xbd5b5011	-0.053543154
147	0xbb461560	-0.0030225143
148	0xbab8e3fa	-0.0014106028
149	0x3d218752	0.039435692
150	0x3cf55e93	0.029952323
151	0xbc9fbab4	-0.019498207
152	0x3b245350	0.0025074072
153	0xbcd46ee8	-0.02593179
154	0xbc1a6c01	-0.009425164
155	0x3c348c2d	0.011019749
156	0xbb86e82a	-0.0041170316
157	0x3c5eafe5	0.013591741
158	0xbd5fc7ee	-0.054634027
159	0xbd7a2dcd	-0.061078835
160	0xbd980277	-0.07422345
161	0x3d36a394	0.044589594
162	0xbdc0698e	-0.09395133
163	0x3c9a747d	0.018854374
164	0x3c27035a	0.01019367
165	0xbbedc997	-0.0072566974
166	0xbc2aa706	-0.010415798
167	0xbcea52a4	-0.02860386
168	0xbcc6bea3	-0.024260825
169	0x3d4f67ba	0.05063603
170	0x3c8d9314	0.017282046
171	0x3bf94655	0.007607261
172	0x3cbc5caa	0.022993404
173	0xbcf65ed6	-0.030074518
174	0x3c0e6c60	0.008692831
175	0x3cdd499c	0.027012639
176	0x3d97e2c8	0.07416302
177	0xbce4777b	-0.027889004
178	0x3d72b1d2	0.059251614
179	0xbbf53a60	-0.0074837655
180	0xbcf1216b	-0.02943488
181	0x3bb9a95d	0.0056659416
182	0x3c92fc13	0.017942464
183	0xbd108cc2	-0.035290487
184	0x3d3d5fb9	0.046233866
185	0x3cff38bd	0.031154985
186	0xbbcf9de5	-0.006335961
187	0x3d4d636f	0.050143655
188	0xbb8eebbf	-0.004361599
189	0xbceef6a9	-0.029170351
190	0xbcce6365	-0.02519388
191	0x3c1a27bd	0.009408888
192	0xbd338978	-0.043832272
193	0xbc4138c6	-0.011793321
194	0xbca0fa2f	-0.019650547
195	0xbc95d7f2	-0.018291447
196	0x3d1d79d3	0.03844626
197	0xbc2da392	-0.01059808
198	0xbd2cb9f3	-0.042169522
199	0xbc47785d	-0.012174693
200	0x3b9305b8	0.0044867657
201	0xbb85b38b	-0.004080241
202	0x3d7853d7	0.06062683
203	0xbcb22849	-0.021747725
204	0x3d787119	0.060654733
205	0x3cc7c359	0.024385141
206	0x3c82f4e1	0.015985908
207	0xbc01554c	-0.0078938715
208	0xbd46dbe8	-0.048549563
209	0xbcdcb2a2	-0.026940648
210	0xbc6c0b93	-0.014407056
211	0x3bf03513	0.0073305457
212	0xbbea5b3c	-0.0071519893
213	0xbb17d94f	-0.0023170297
214	0x3ac36411	0.0014907141
215	0x3c00f3d5	0.007870634
216	0xbe03f5d7	-0.12886749
217	0x3c00478d	0.007829559
218	0x3d0c2fad	0.034225155
219	0xbcb41a11	-0.021985086
220	0x3ba91235	0.005159641
221	0x3c106067	0.008812047
222	0xbc8145cd	-0.015780354
223	0x3bb9200e	0.005649573
224	0xbc40d82e	-0.011770291
225	0xbd59bdd6	-0.053159557
226	0x3c3e0ac6	0.011599248
227	0xbcec8915	-0.02887396
228	0x3cfcf299	0.030877398
229	0xbbf6e31b	-0.0075343973
230	0x3d1d7dff	0.038450237
231	0x3caf22ff	0.021378992
232	0xbd403fd9	-0.04693589
233	0xbdfbf1c8	-0.123019755
234	0x3d0cf879	0.03441665
235	0x3d749382	0.059710987
236	0xbcb46810	-0.022022277
237	0x3c306c35	0.010767986
238	0xbb49c44b	-0.0030787166
239	0x3c36fc25	0.011168514
240	0xb9e1629e	-0.0004298882
241	0xbd6a33fe	-0.05717849
242	0xbc223be7	-0.009901977
243	0xbcc40ff7	-0.023933394
244	0xbd38d90d	-0.04512887
245	0x3d510f0f	0.05103975
246	0xbc7bf860	-0.015379041
247	0x3d0e7782	0.03478194
248	0xbcd53c74	-0.026029803
249	0xbbce0e69	-0.006288339
250	0x3d0d435a	0.03448806
251	0x3bc6b8c6	0.006064507
252	0xbc96bdc8	-0.018401042
253	0xbc94fb59	-0.018186258
254	0x3d0324ac	0.032017395
255	0x3b7f1432	0.003892195

main1.1.weight f4 [24]
0	0x3f8db624	1.107121
1	0x3f9244fa	1.14273
2	0x3f7369a1	0.9508305
3	0x3f89c872	1.0764296
4	0x3f6523b4	0.89507604
5	0x3f6b5087	0.9191975
6	0x3f6ad6fd	0.91734296
7	0x3f67514e	0.90358436
8	0x3f740a62	0.9532834
9	0x3f86f443	1.0543293
10	0x3f68305a	0.9069878
11	0x3f6ed5f8	0.9329524
12	0x3f6d44a4	0.9268286
13	0x3f8c274b	1.0949491
14	0x3f871bcb	1.0555357
15	0x3f75b73e	0.9598273
16	0x3f8c87ff	1.0979003
17	0x3f8225c1	1.0167772
18	0x3f60af31	0.8776732
19	0x3f895297	1.072833
20	0x3f8b0917	1.0862149
21	0x3f8dfeb4	1.1093354
22	0x3f6d0385	0.92583495
23	0x3f7765c0	0.96639633

main1.1.bias f4 [24]
0	0xbdc24e68	-0.09487611
1	0xbe7e9f0b	-0.24865358
2	0x3ca65f01	0.020308973
3	0xbdcc6788	-0.099806845
4	0x3d1a9267	0.037737276
5	0x3c8efc4a	0.017454285
6	0xbde85242	-0.113438144
7	0xbd0df008	-0.03465274
8	0x3d0667ec	0.03281395
9	0xbe05a11c	-0.1304974
10	0xbaa40d03	-0.0012516085
11	0xbcfd0156	-0.030884426
12	0xbb8b4768	-0.0042504556
13	0xbd70867c	-0.058722004
14	0xbe2eadc0	-0.17058468
15	0x3c303880	0.010755658
16	0xbe39c610	-0.18141961
17	0x3b3c8d6b	0.0028770815
18	0x3cfa0d45	0.030523906
19	0xbdf3d20e	-0.11905299
20	0xbd4598fa	-0.048241593
21	0xbddcfb1f	-0.10790085
22	0x3cf0eea3	0.029410666
23	0xbd81126a	-0.0630234

main1.1.running_mean f4 [24]
0	0xbde0cad9	-0.1097619
1	0xbdeaa941	-0.11458064
2	0xbddba936	-0.10725634
3	0xbd6f294c	-0.058388993
4	0xbdffd42b	-0.1249164
5	0xbea7cfeb	-0.32775816
6	0xbdbeb475	-0.09311763
7	0xbd67c547	-0.056584623
8	0xbddda0ad	-0.10821662
9	0xbda72cf6	-0.081628725
10	0xbe43ccec	-0.1912114
11	0xbcd9fb40	-0.026609063
12	0xbe4074d7	-0.18794571
13	0xbdffb6e0	-0.124860525
14	0xbdf240b7	-0.118287496
15	0xbe38960e	-0.18025991
16	0xbe0b640d	-0.13612385
17	0xbc33bbe4	-0.01097009
18	0xbe9e4cba	-0.30917913
19	0xbe85444d	-0.26028672
20	0xbe7b588b	-0.24545495
21	0xbe3af68a	-0.1825811
22	0xbdb8f882	-0.09031774
23	0xbe046b23	-0.12931494

main1.1.running_var f4 [24]
0	0x3f0f6f69	0.56029373
1	0x3f1b5fa2	0.606928
2	0x3ebb4c10	0.3658147
3	0x3ec9a68d	0.3938488
4	0x3ee92fe3	0.45544347
5	0x3ed76eac	0.42076623
6	0x3edb58f8	0.42841315
7	0x3ef9b44b	0.48770365
8	0x3ef1d6f1	0.472343
9	0x3eda3ac1	0.4262295
10	0x3f1c0494	0.60944486
11	0x3ef7df28	0.48412442
12	0x3ec897a3	0.3917819
13	0x3f08c35e	0.53423107
14	0x3f14fff2	0.5820304
15	0x3f022fca	0.5085417
16	0x3f043dd8	0.51656866
17	0x3f08953f	0.5335273
18	0x3f07813a	0.5293156
19	0x3f09fdd2	0.53902924
20	0x3f1a82b5	0.60355693
21	0x3f27f2d5	0.6560491
22	0x3efcccd4	0.4937502
23	0x3e80c5e6	0.25150985

main1.3.weight f4 [24, 12, 4, 4]
0	0x3ba29641	0.0049617593
1	0x3d575291	0.052568976
2	0xbd3e56b5	-0.04646941
3	0xbca77a01	-0.020443918
4	0xbd11b6d3	-0.035574745
5	0xbb057e7c	-0.002036958
6	0x3bccd504	0.0062509794
7	0xbc6d48b1	-0.014482663
8	0xbd81cc25	-0.063377656
9	0xbc9c429b	-0.019074729
10	0xbd9013b7	-0.0703501
11	0xbd36419a	-0.044496156
12	0x3caecef1	0.021338912
13	0xbd26cc3e	-0.040722124
14	0xbd146595	-0.03622969
15	0xbbc2bb0e	-0.005942709
16	0xbb340a2d	-0.0027471886
17	0x3e7f3a6a	0.24924627
18	0xbc51eb55	-0.012812455
19	0xbd000c10	-0.031261504
20	0x3bc1dc85	0.0059161806
21	0x3c6369a4	0.013880167
22	0x3c8b76e2	0.017024461
23	0x3b912542	0.0044294903
24	0xbbf1e286	-0.00738174
25	0xbd36edda	-0.044660427
26	0xba87a11e	-0.0010347699
27	0xbc8e5614	-0.01737503
28	0xbd2fc9e1	-0.042917136
29	0x3d07cd0c	0.033154532
30	0x3cbfa757	0.023395224
31	0xbc114cfd	-0.008868453
32	0x3a7c862d	0.0009633031
33	0x3c02034b	0.007935355
34	0x3b746769	0.0037293083
35	0xbd0027d7	-0.031287994
36	0x3c82db8b	0.015973827
37	0x3d6869e1	0.0567416
38	0x3ab1b946	0.0013559244
39	0xbcb8b413	-0.022546804
40	0xbcc45775	-0.023967484
41	0xbc1d060e	-0.009583963
42	0xbd052e38	-0.03251478
43	0xbc94b1b8	-0.01815115
44	0x3d3a9ce0	0.045559764
45	0xbbc7a733	-0.0060929297
46	0xbc29e1a3	-0.010368737
47	0x3b5f068c	0.0034031002
48	0xbbbb8134	-0.0057221893
49	0x3e75a03b	0.23986904
50	0xbc49e599	-0.012322807
51	0xbcd1ed0f	-0.025625734
52	0x3d03dd43	0.032193433
53	0xbd3f7ad2	-0.04674799
54	0xbc5d935a	-0.013523901
55	0x3bebeb1e	0.007199659
56	0x39dad80a	0.00041741162
57	0xbc1cf15f	-0.009579032
58	0xbbeb2119	-0.0071755764
59	0x3cde8ad5	0.02716581
60	0x3ca996d4	0.020701803
61	0xbcfda6b9	-0.030963289
62	0xbcacc650	-0.021090657
63	0x3bfd41ec	0.0077288058
64	0xbce59113	-0.028023278
65	0xbd659ae9	-0.056055937
66	0x3c8b16d4	0.016978659
67	0xbd07ab1b	-0.033122163
68	0xbd5d8d84	-0.054090038
69	0x3c8ee67c	0.017443888
70	0xbc34d6c6	-0.011037534
71	0xbce79f56	-0.02827422
72	0x3cc5eb81	0.024160149
73	0xbce813d9	-0.028329777
74	0x3c56c112	0.013107555
75	0xbcf98e6a	-0.030463416
76	0x3ba725bb	0.0051009334
77	0xbd50781d	-0.0508958
78	0xbd89ef3f	-0.06735086
79	0xbcaeadab	-0.021323046
80	0x3d59abb9	0.053142283
81	0xbd2c20b3	-0.042023372
82	0xbc07082c	-0.008241694
83	0xbcf99264	-0.030465312
84	0xbd0206fe	-0.03174495
85	0xbcb59196	-0.022164147
86	0xbc067252	-0.008205967
87	0xbc0b0cc4	-0.00848693
88	0x3d36b181	0.044602875
89	0xbcb57c37	-0.022153957
90	0x3b0c93cd	0.00214504
91	0x396a4245	0.00022340666
92	0x3c3a6191	0.011375801
93	0x3d425ba3	0.047450673
94	0xbd0fe466	-0.035129927
95	0xbcb78bf8	-0.02240561
96	0x3da9351e	0.082620844
97	0xbd332186	-0.043733142
98	0x3ba79fd8	0.0051154904
99	0xbb02f2a7	-0.0019981058
100	0xbc624271	-0.013809786
101	0x3d8005a0	0.06251073
102	0xbd56cec1	-0.05244327
103	0x3c9ad829	0.018901901
104	0xbd350c89	-0.044201408
105	0xbd41bfb8	-0.047301978
106	0xbcaf56f3	-0.021403765
107	0x3c39f8be	0.011350809
108	0x3c0c999d	0.008581546
109	0x3c84e466	0.01622219
110	0x3d459b3a	0.04824374
111	0x3ca0db3f	0.019635795
112	0x3a7f3997	0.00097360596
113	0x3e81ca2f	0.25349566
114	0x3ba48c44	0.005021604
115	0x3b51b531	0.0031998868
116	0xbd149b1b	-0.036280733
117	0x3c69dc11	0.014273659
118	0x3bbb204b	0.0057106367
119	0x3c29309e	0.010326533
120	0x3c2105b1	0.009828017
121	0xbda08f91	-0.07839883
122	0x3b3ea47d	0.0029089742
123	0x3ca7fff6	0.020507794
124	0xbb70271a	-0.00366444
125	0xbceb228a	-0.028702993
126	0xbca96650	-0.02067867
127	0x3c8d695a	0.01726215
128	0x3d2590b2	0.040421195
129	0xbd299da2	-0.041410096
130	0xbbdc8239	-0.006729391
131	0x3d68199f	0.05666506
132	0xbdb57dc5	-0.08861879
133	0x3d56c250	0.052431405
134	0xbd36f5ae	-0.044667892
135	0xba97cf9d	-0.0011582259
136	0xbd2616cc	-0.040549085
137	0x3bd6cf35	0.0065554627
138	0x3cff61f8	0.031174645
139	0x3cc43e58	0.023955509
140	0xbcf51b50	-0.02992025
141	0x3c914d2a	0.01773699
142	0xbd1f7d7c	-0.03893803
143	0xbcb2bc31	-0.021818252
144	0xbdafc0eb	-0.08581718
145	0x3d4ef924	0.050530568
146	0xbd855442	-0.065102115
147	0x3ba1175b	0.0049161143
148	0xbcd48d64	-0.025946327
149	0xbdc71ca6	-0.09722261
150	0xbc915ac4	-0.017743476
151	0xbd855f67	-0.06512337
152	0xbd0608ef	-0.032723363
153	0x3ce8c14b	0.028412482
154	0xb99fb834	-0.00030464085
155	0x3d1a7161	0.037705783
156	0xbd242dcf	-0.04008275
157	0x3b276941	0.0025544914
158	0xbc68a70e	-0.014199985
159	0xbcd7f0b7	-0.026359899
160	0x3bccb2cd	0.0062469007
161	0xbd170c00	-0.03687668
162	0x3b545a20	0.0032402351
163	0xbcd54288	-0.026032701
164	0xbc55263e	-0.013009606
165	0xbc88cf59	-0.016700434
166	0xbce7c02d	-0.028289879
167	0xbccb2d3a	-0.02480184
168	0xbaf2e0fe	-0.0018530188
169	0xbd731909	-0.059350047
170	0x3c9d9b73	0.019239163
171	0xbd74706c	-0.059677526
172	0x3cad375d	0.021144563
173	0xbd4d2eb0	-0.050093353
174	0x3caf8012	0.021423373
175	0xbcf9bb42	-0.0304848
176	0xbacafba1	-0.0015486368
177	0x3e11e05d	0.14245744
178	0x3cd4b326	0.02596433
179	0xbd014d5d	-0.03156792
180	0x3c1daa8e	0.009623183
181	0x3d324546	0.043523096
182	0xbb3d9411	-0.0028927366
183	0xb8fdf689	-0.00012109901
184	0xbc0123ec	-0.0078821
185	0xbd9f92ac	-0.07791647
186	0x3d05afa3	0.032638203
187	0xbc7462f1	-0.014916168
188	0xbc9e45a8	-0.019320324
189	0xbc7bb261	-0.015362353
190	0x3ba06abb	0.0048955358
191	0x3d07d264	0.03315963
192	0x3cc46f20	0.02397877
193	0xbba25b49	-0.0049547297
194	0x3cd906df	0.026492534
195	0x3d7fd62e	0.062460117
196	0xbbe39138	-0.0069448017
197	0xbcb2e2b5	-0.021836618
198	0x3ccfddcf	0.025374321
199	0xbca60f5f	-0.020271001
200	0xbdc6fda2	-0.09716345
201	0x3d0b4cd1	0.034008805
202	0xbd4fce6c	-0.05073397
203	0xbc9bffa1	-0.019042792
204	0xbd2454f7	-0.04012009
205	0xbd2a111d	-0.041520227
206	0x3bf71573	0.0075403987
207	0xbcb81fff	-0.022476194
208	0x3a98e27f	0.0011664181
209	0x3cf2f87c	0.029659502
210	0x3c94c5b2	0.018160675
211	0xbc4d4c66	-0.012530422
212	0x3b88c1d5	0.004173497
213	0x3cf5675b	0.02995651
214	0x3a5c6189	0.0008406868
215	0x3c2db642	0.010602536
216	0xbd2cd75e	-0.042197578
217	0x3e8b864a	0.27250892
218	0x3c9b187b	0.018932572
219	0x3d0174c9	0.031605516
220	0xbd0ffdc8	-0.035154134
221	0xbaacf823	-0.0013196509
222	0xbade4ff7	-0.0016961087
223	0x3c41c171	0.011825905
224	0xbc20b5ff	-0.009809016
225	0x3ab8f899	0.0014112174
226	0xbaa33e79	-0.0012454531
227	0xbccefceb	-0.025267085
228	0xbc52c72a	-0.012864867
229	0x3b64e161	0.0034924375
230	0x3c6f7ea6	0.014617598
231	0x3c9cd327	0.019143654
232	0x3c16e5d4	0.009210069
233	0xbbd4630c	-0.006481534
234	0xbd590f34	-0.052993014
235	0xbd17ebed	-0.03709023
236	0x3d4061be	0.046968214
237	0x3d9a436f	0.07532393
238	0x3cc024f4	0.02345512
239	0x3ceab529	0.028650837
240	0xbc5948f5	-0.013262023
241	0x3cd59d84	0.026076086
242	0x3b16580d	0.0022940666
243	0xbc9ec829	-0.019382553
244	0x3bc5d62f	0.0060374956
245	0x3b7f278e	0.0038933489
246	0xbba388a2	-0.004990653
247	0x3cbb56ec	0.022868596
248	0xbc88b172	-0.016686175
249	0x3e87910d	0.26477852
250	0xbc8dd699	-0.017314242
251	0x3d1b9f22	0.037993558
252	0x3c615d15	0.013755103
253	0x3c1e2fe9	0.009654977
254	0xbcef2f3a	-0.029197324
255	0x3cd46cea	0.02593084

main1.4.weight f4 [12]
0	0x3f7b0d9b	0.98067635
1	0x3f8cae87	1.0990762
2	0x3f71f8cf	0.94520277
3	0x3f9dd6bd	1.2331158
4	0x3f7cc993	0.9874508
5	0x3f5ab055	0.8542531
6	0x3f6807f8	0.9063716
7	0x3f9437c4	1.1579518
8	0x3f597416	0.8494276
9	0x3f65eda9	0.89815766
10	0x3f787899	0.9705902
11	0x3f727e02	0.9472352

main1.4.bias f4 [12]
0	0x3ca36941	0.01994765
1	0xbe5f94ff	-0.21834181
2	0xbd354557	-0.04425558
3	0xbe4f2a04	-0.20230871
4	0x3d721a57	0.05910715
5	0xbdb3311b	-0.087496005
6	0xbc0ff01e	-0.008785276
7	0xbe4da5c2	-0.20082763
8	0xbc6e94f8	-0.014561884
9	0xbcdfb719	-0.027308987
10	0x3d621f7f	0.05520582
11	0xbd199605	-0.037496585

main1.4.running_mean f4 [12]
0	0xbe891c26	-0.26779288
1	0x3d455a7d	0.048182
2	0xbabf6c26	-0.0014604374
3	0x3c8c8e3c	0.017157666
4	0xbeed25a3	-0.46317777
5	0x3cab3ab1	0.02090201
6	0xbbefbdf3	-0.007316345
7	0x3cdf67b7	0.027271135
8	0xbe4267a2	-0.18984845
9	0xbeccb40f	-0.39981124
10	0xbef171a1	-0.47157004
11	0x3beb4416	0.0071797473

main1.4.running_var f4 [12]
0	0x3f0169b0	0.5055189
1	0x3d4b09b9	0.04956982
2	0x3e91208b	0.2834514
3	0x3d37808e	0.044800334
4	0x3f4b7048	0.794682
5	0x3e3bd18e	0.18341658
6	0x3debffdf	0.11523413
7	0x3d51322f	0.05107325
8	0x3edee298	0.43532252
9	0x3edb415f	0.42823312
10	0x3f0beb96	0.5465635
11	0x3da45c40	0.08025408

main1.6.weight f4 [12, 6, 4, 4]
0	0xbcacbc4a	-0.021085877
1	0x3c9d1f8d	0.019180084
2	0xbd7dcf43	-0.06196524
3	0xba2bf2fd	-0.00065593404
4	0xbc78b119	-0.015178942
5	0xbc8c3de3	-0.017119354
6	0xbcd659ef	-0.02616593
7	0x3c9ebc8e	0.01937702
8	0xbc8dfd37	-0.017332656
9	0xba32dd23	-0.0006823113
10	0x3d03dea2	0.03219474
11	0x3c5be7fa	0.013422007
12	0xbc169a78	-0.009192102
13	0x3c84acd2	0.016195688
14	0xbc3f4c40	-0.011675894
15	0xbcdd4805	-0.02701188
16	0xbd68db70	-0.056849897
17	0xbd87eed6	-0.06637351
18	0xbc2df4a1	-0.010617406
19	0xbd87954f	-0.06620275
20	0xbd248d17	-0.040173616
21	0xbdae362b	-0.085064255
22	0x3ce87c08	0.028379455
23	0xbd125493	-0.035725188
24	0x3c1287a9	0.008943477
25	0xbdfd4c5a	-0.123680785
26	0xbd427137	-0.04747125
27	0xbdf54bc4	-0.11977342
28	0x3cb0f0a5	0.021599123
29	0xbc2be635	-0.010491897
30	0x3cc84a3b	0.024449458
31	0x3d2b2001	0.04177857
32	0xbbba0f22	-0.0056780735
33	0xbd4611b7	-0.048356738
34	0xbb78ea45	-0.0037981432
35	0xbd60caed	-0.054881025
36	0xbd6147cd	-0.055000115
37	0xbd9f928d	-0.07791624
38	0x394e8b13	0.000196975
39	0xbbed9e4f	-0.007251538
40	0xbc5d3e34	-0.0135036
41	0x3d29fd63	0.041501414
42	0x3d668f43	0.05628897
43	0xbe09bee1	-0.13451721
44	0x3ca740fb	0.020416727
45	0x3d2644b7	0.040592875
46	0xbaf05a5b	-0.0018337475
47	0xbce52ff5	-0.02797697
48	0x3b641ccf	0.003480721
49	0xbd1ecf43	-0.03877188
50	0xbd06bd95	-0.032895643
51	0x3c8a0e76	0.016852599
52	0x3c8eaae8	0.017415479
53	0xbd710afc	-0.058848366
54	0x3c059e92	0.008155482
55	0xbce61315	-0.02808527
56	0xbd32f0fb	-0.043686848
57	0x3d2ab51a	0.04167662
58	0x3d947f10	0.07250798
59	0xbd6aa527	-0.057286408
60	0xbd7cf839	-0.06176016
61	0x3d831eea	0.06402381
62	0xbd9f982b	-0.077926956
63	0xbda97db6	-0.082759306
64	0x3c35e258	0.011101328
65	0x3c169d3c	0.009192761
66	0xbceecf2c	-0.029151522
67	0x3cf03e70	0.029326648
68	0xbc9919b8	-0.018689021
69	0xbc38a797	-0.011270425
70	0xbcec2270	-0.028825015
71	0xbd942f72	-0.07235612
72	0xbbaed4eb	-0.0053354404
73	0xbb463112	-0.003024165
74	0x3ba62654	0.005070487
75	0xbbb5add2	-0.0055444026
76	0x3cef98d2	0.029247675
77	0x3be73b93	0.0070566623
78	0x3b1daa59	0.0024057834
79	0xbc269a6c	-0.010168653
80	0x3d0ed636	0.034872256
81	0x3a78e2cb	0.0009494244
82	0x3b991c60	0.004672572
83	0xbd2979f8	-0.041376084
84	0xbd3faa9f	-0.046793576
85	0x3c741cd0	0.014899448
86	0xbbb887e5	-0.0056314343
87	0xbde80c72	-0.11330499
88	0x3ca4958b	0.020090839
89	0xbd11b2d0	-0.03557092
90	0xb871302e	-5.750375e-05
91	0x3a0b5a90	0.0005315924
92	0xbc29334c	-0.0103271715
93	0xbbd161fc	-0.0063898545
94	0x3c6f94c6	0.014622873
95	0xbbd1c44f	-0.0064015756
96	0x3ca5ad4d	0.020224238
97	0xbbfb7c40	-0.007674724
98	0x3b8f6a66	0.0043766974
99	0x3c2f216a	0.010689119
100	0x3b8a2ff6	0.004217143
101	0x3ca014e5	0.019541213
102	0x3e1431c4	0.14472109
103	0xbbf50bef	-0.0074782292
104	0x3cc6520b	0.024209043
105	0x3c4beac7	0.012446112
106	0x3e13c50a	0.14430633
107	0x3c21dc81	0.009879232
108	0x3bf3d208	0.007440809
109	0x3b3216ff	0.0027174351
110	0x3df78622	0.12086131
111	0x3b9274f6	0.0044695092
112	0xbc3ddd39	-0.011588388
113	0xbcc6c9e8	-0.024266198
114	0xbd167fea	-0.036743082
115	0xbda97597	-0.082743816
116	0xbbad2027	-0.005283374
117	0xbd45d6ce	-0.048300557
118	0x3d3fcaa2	0.046824105
119	0x3b97e4f3	0.004635447
120	0x3b03f258	0.0020133462
121	0xbd176be8	-0.03696814
122	0xbd2875a9	-0.041127834
123	0xbd95d152	-0.07315315
124	0xbcf9ccba	-0.030493129
125	0xbce8a064	-0.028396793
126	0xbc1112df	-0.008854597
127	0xbce73260	-0.028222263
128	0x3c8e64b7	0.017382009
129	0xbdef8341	-0.116949566
130	0xbd0218d0	-0.031761944
131	0xbcafc020	-0.021453917
132	0xbbed834e	-0.0072483188
133	0xbd82ef6c	-0.06393322
134	0xbcda1e36	-0.026625734
135	0xbcf9b63b	-0.030482402
136	0x3c35709e	0.011074213
137	0xbdb37219	-0.08761997
138	0xbd80639f	-0.06269001
139	0xbe0675d0	-0.1313088
140	0xbc9ecec6	-0.019385707
141	0x3be6b6d7	0.007040839
142	0x3bdf9f0f	0.006824381
143	0xbcdaf3f2	-0.02672765
144	0xbc30bdb2	-0.010787414
145	0xbcf8fe3b	-0.030394664
146	0x3c94f719	0.018184232
147	0xbc9c2c36	-0.01906405
148	0xbd8c57d4	-0.068526894
149	0xbd87d7b2	-0.066329375
150	0xbba71433	-0.0050988435
151	0xbbf6f551	-0.007536568
152	0x3b7fa5b6	0.0039008684
153	0x3d5069db	0.0508822
154	0xbcc57278	-0.024102435
155	0xbc9f31b8	-0.019432887
156	0xbe041b31	-0.12900998
157	0x3b68f309	0.003554525
158	0xbd4bf625	-0.04979529
159	0xbe22602b	-0.15856998
160	0x3c566c7a	0.013087386
161	0xbaf67870	-0.0018804204
162	0x3cc0b416	0.023523372
163	0xbb099589	-0.002099367
164	0xbc352a15	-0.011057396
165	0x3d977b3b	0.07396551
166	0x3ccc4bd3	0.0249385
167	0x3ca86e48	0.020560399
168	0xbbb2183a	-0.005435017
169	0xbca0e5e0	-0.019640863
170	0x3cac52e2	0.021035615
171	0x3c4c197b	0.012457247
172	0xbc292e3f	-0.010325967
173	0x3e4012d1	0.18757178
174	0x3e098feb	0.13433807
175	0x3ba7e934	0.0051242355
176	0xbc30698c	-0.010767352
177	0xbd208e5e	-0.039198272
178	0xbcb4eaf8	-0.022084698
179	0x3be5db39	0.007014659
180	0xbafa4387	-0.0019093611
181	0x3dadd3bf	0.08487653
182	0x3c9e7073	0.01934073
183	0xbc3627d1	-0.011117891
184	0xbc3561e5	-0.011070703
185	0x3bfb6775	0.007672245
186	0x3c2716bf	0.010198294
187	0xbb64550b	-0.0034840729
188	0xbb213664	-0.002459907
189	0x3e2d14fe	0.16902539
190	0x3e1128bb	0.14175694
191	0x3c3203ac	0.010865133
192	0xbd15f0f7	-0.036606755
193	0xbcd13e00	-0.02554226
194	0x3a53e8e8	0.0008083717
195	0x3c92eab1	0.017934175
196	0xbc3a3f66	-0.011367654
197	0x3c1679cc	0.009184312
198	0xbb324ea3	-0.0027207516
199	0xbc5e6777	-0.013574473
200	0x3c5abb04	0.013350252
201	0xbbf381dc	-0.007431252
202	0xbd38cd15	-0.045117456
203	0xbc3d286d	-0.011545283
204	0xbc379d52	-0.011206942
205	0xbb9a4697	-0.004708122
206	0xbc588029	-0.0132141495
207	0xbce73ac3	-0.028226262
208	0xbd7fb310	-0.062426627
209	0xbd9a33b9	-0.075293966
210	0xbd575747	-0.05257347
211	0xbd92712e	-0.071504936
212	0xbd12fc00	-0.035884857
213	0xbd21c7b2	-0.039497085
214	0x3c8925d2	0.016741667
215	0xbd34f65f	-0.04418027
216	0xbc44b725	-0.012006556
217	0xbccf6a10	-0.02531913
218	0xbcfa4609	-0.030550973
219	0xbd967bd7	-0.07347839
220	0x3cf333dd	0.029687816
221	0x3d2373a1	0.039905194
222	0x3bb3e5f8	0.005490061
223	0xbd8068c9	-0.06269986
224	0xbd4006c1	-0.04688144
225	0xbd8d0df0	-0.06887424
226	0xbcc11251	-0.023568304
227	0xbdef0151	-0.11670173
228	0xbd7483a9	-0.059695873
229	0xbd7e2777	-0.062049355
230	0xbcd820a3	-0.02638275
231	0xbc215c6e	-0.009848697
232	0x3d5d3385	0.05400421
233	0x3d68a969	0.056802187
234	0x3d648db4	0.0557992
235	0xbd41ebe9	-0.047344122
236	0x3d8c2c0b	0.06844338
237	0x3d95370f	0.07285892
238	0x3da0a852	0.078446046
239	0xbc88c562	-0.016695682
240	0xbce1bbcd	-0.02755537
241	0x3d265777	0.040610757
242	0xbd4f6164	-0.05062999
243	0x3d88d0b5	0.06680433
244	0xbcc35135	-0.023842433
245	0xbd86dcae	-0.0658506
246	0xbd78eed4	-0.06077464
247	0xbd9c11f0	-0.07620609
248	0xbba6851e	-0.005081787
249	0x3d063858	0.032768577
250	0x3cd41a3d	0.025891418
251	0xbc2c2f78	-0.010509364
252	0x3baf8087	0.005355898
253	0x3c52618f	0.012840643
254	0xbc1d1919	-0.009588503
255	0xbc1ec5f1	-0.009690748

main1.7.weight f4 [6]
0	0x3f8d87c8	1.1057062
1	0x3f6a193b	0.9144475
2	0x3f707dd7	0.93942016
3	0x3f670be9	0.9025255
4	0x3f92db69	1.1473209
5	0x3f8ab66a	1.0836918

main1.7.bias f4 [6]
0	0xbe4df0f0	-0.20111442
1	0xbda9d14d	-0.08291874
2	0x3aef3fb2	0.0018253236
3	0xbd43123e	-0.04762482
4	0xbe3ed634	-0.186364
5	0xbda8c806	-0.082412764

main1.7.running_mean f4 [6]
0	0x3b9d0a5a	0.004792494
1	0xbe9d4b62	-0.30721575
2	0xbe342a2d	-0.17594214
3	0xbe1b2d9c	-0.15154117
4	0xbd28afd0	-0.041183293
5	0xbca4f422	-0.020135943

main1.7.running_var f4 [6]
0	0x3e3bcc08	0.1833955
1	0x3eb673ea	0.3563531
2	0x3ebdbbe7	0.3705742
3	0x3e834a74	0.2564274
4	0x3e3c7c80	0.18406868
5	0x3e46a854	0.1940015

main1.9.weight f4 [6, 3, 4, 4]
0	0xbe1d7c83	-0.15379529
1	0x3aea4edc	0.0017876285
2	0xbde79a97	-0.113087825
3	0xbb6ec755	-0.003643473
4	0xbba5545f	-0.005045458
5	0xbbe5c072	-0.0070114667
6	0xbbfcf853	-0.0077200322
7	0xbb033523	-0.0020020686
8	0xbde1d9cc	-0.110278696
9	0x3b4d94e5	0.0031369266
10	0xbd2ec4b0	-0.042668045
11	0x3bd72aaa	0.0065663652
12	0x3b2b8524	0.0026171887
13	0x3c7bd157	0.015369735
14	0x3cc322a5	0.02382023
15	0x3c9831b2	0.018578384
16	0xbb7701f3	-0.003769037
17	0x3bbdbb93	0.005790183
18	0xbbd8d8e0	-0.0066176504
19	0xbe78c3f0	-0.24293494
20	0xbc02ebda	-0.007990802
21	0x3ca78103	0.02044726
22	0xbc24c1f7	-0.01005601
23	0x3da52e68	0.08065492
24	0x3ae3fc0a	0.0017393839
25	0xbcb0ffdd	-0.02160638
26	0xbb575fa4	-0.0032863403
27	0xbe83fe32	-0.25779873
28	0x3d01a3fe	0.031650536
29	0x3d1fd459	0.03902087
30	0x3cab5147	0.02091278
31	0x3d09f6f7	0.03368279
32	0x3a0e581b	0.0005429999
33	0xbe9662ea	-0.2937234
34	0x3a381a14	0.0007022929
35	0x3dbadda8	0.09124309
36	0xbacd8e8e	-0.0015682743
37	0xba1b5583	-0.0005925523
38	0x3a592fb4	0.00082850014
39	0x3c10f110	0.008846536
40	0x3beaba5b	0.0071633286
41	0xbec4872b	-0.38384375
42	0xbb18a2ad	-0.0023290322
43	0x3cbaf63c	0.022822492
44	0x3c19ea85	0.009394293
45	0x3c2744fd	0.010209319
46	0x3b4dbb49	0.0031392148
47	0x3c02e2fd	0.007988689
48	0xbce96f4f	-0.028495459
49	0xbcbc4157	-0.022980375
50	0x3d65fc6f	0.056148943
51	0x3d014f54	0.031569794
52	0xbb6be23d	-0.0035993003
53	0xbb2c9623	-0.0026334606
54	0xbadb40c0	-0.0016727671
55	0x3bbb5759	0.0057171998
56	0x3a36e511	0.00069768826
57	0x3b5b848e	0.0033495757
58	0x3cf49e0b	0.029860517
59	0x3d0efcad	0.03490894
60	0xbc6de30d	-0.014519465
61	0x3c0149a9	0.007891097
62	0x3d9b17b9	0.07572884
63	0x3dcf87d8	0.10133332
64	0xbd3eb61d	-0.046560396
65	0xbc68be47	-0.014205522
66	0xbcb89e69	-0.022536473
67	0x3a49ebd4	0.00077026826
68	0x3b60cfdc	0.0034303581
69	0xbd2fbe1b	-0.042905908
70	0xbd02c8eb	-0.03192989
71	0xbd5cf8f5	-0.05394836
72	0xbc2ef133	-0.010677624
73	0xbd2ead46	-0.042645715
74	0xbcfb2770	-0.030658454
75	0x3cb5df73	0.022201275
76	0xbb8e2db8	-0.004338946
77	0x3b6d5269	0.003621245
78	0x3bb5a41f	0.0055432464
79	0x3d9b0e18	0.075710475
80	0xbc05476c	-0.008134704
81	0xbcdd7755	-0.027034441
82	0xbcb965f3	-0.022631621
83	0xbd30f4a3	-0.043202054
84	0xbc56045c	-0.013062563
85	0xbd2ca03b	-0.042144995
86	0xbd2b2aef	-0.04178899
87	0xbab931d1	-0.0014129226
88	0x3c806ab0	0.015675873
89	0x3cf6540e	0.030069377
90	0x3b70ead9	0.0036761074
91	0x3cc670f6	0.024223786
92	0x3c894e5f	0.016761003
93	0x3d170d36	0.036877833
94	0x3c5db578	0.013532035
95	0x3cfbc497	0.03073339
96	0x3d62bb07	0.055354144
97	0x38bf7ce9	9.130856e-05
98	0x3c2a71ae	0.01040308
99	0xbb893293	-0.004186937
100	0xbc9981b8	-0.018738613
101	0xbd0086a1	-0.031378392
102	0xbc0fb140	-0.008770287
103	0xbc1bd8fe	-0.009512184
104	0x3cb2e3e4	0.021837182
105	0xbd14ea8f	-0.036356505
106	0xbc909851	-0.017650755
107	0xbc7573a3	-0.014981183
108	0x3bf06d2c	0.007337233
109	0xbc6d5bc0	-0.014487207
110	0xbcd4b967	-0.025967313
111	0x3d0a14af	0.03371113
112	0x3dd1e0f9	0.10247988
113	0x3d499020	0.049209714
114	0x3d6e0583	0.058110725
115	0x3cf6c4e4	0.030123182
116	0x3c81bf8b	0.015838405
117	0xbc805bac	-0.015668713
118	0x3ca0d011	0.019630464
119	0x3d667962	0.056268103
120	0x3c128ee6	0.008945202
121	0x3cb3c321	0.02194363
122	0x3b0fa359	0.002191743
123	0x3d10a2d4	0.035311535
124	0x3cee8980	0.0291183
125	0x392c4cb7	0.00016431777
126	0x3cdabe00	0.026701927
127	0x3ca0ad22	0.019613806
128	0x3ba36bde	0.004987224
129	0xbcb39497	-0.02192144
130	0xbcc3c6cd	-0.023898507
131	0x3d07e970	0.033181608
132	0xbd0960f7	-0.03353974
133	0xbd53ef88	-0.051742107
134	0xbcbb7325	-0.022882054
135	0x3cdbbd1e	0.026823577
136	0x3c911210	0.017708808
137	0x3cf2cf26	0.029639792
138	0x3c927132	0.017876241
139	0x3d741f5c	0.05960022
140	0x3d3b8871	0.045784418
141	0x3d39d74e	0.045371346
142	0x3d6d8f1d	0.05799781
143	0x3d62763f	0.05528855
144	0xbc5b5d40	-0.013388932
145	0xbb27ea88	-0.002562197
146	0xbbfe2ed0	-0.0077570453
147	0xbc81010e	-0.015747573
148	0x3d63190f	0.05544382
149	0x3aef8362	0.0018273408
150	0xbd0c1f5c	-0.034209594
151	0x3c563bf2	0.0130758155
152	0xbb415274	-0.0029498609
153	0x3ce372c8	0.027764693
154	0xbd964963	-0.07338216
155	0x3d07ec18	0.03318414
156	0xbca2c9fa	-0.0198717
157	0xbd28ae61	-0.041181926
158	0x3b9013ed	0.0043969066
159	0xbb736886	-0.0037141158
160	0x3d120b08	0.03565505
161	0xbc2a6137	-0.010399154
162	0xbc6ff934	-0.014646817
163	0xbcb17a72	-0.021664832
164	0x3d3cc4ed	0.04608624
165	0xbb1c5a8a	-0.0023857676
166	0xbd20dece	-0.039274983
167	0x3b81fae9	0.0039666784
168	0x3d3e35f6	0.04643818
169	0xbd3dee83	-0.04637004
170	0xbbf5f75a	-0.0075062932
171	0xbc3a1a56	-0.011358818
172	0x3c874bc3	0.016515618
173	0xbc2acf59	-0.010425412
174	0xbd7bb7c9	-0.061454568
175	0x3b7edaf6	0.0038887835
176	0xbb966dcc	-0.0045907255
177	0xbd0a71b4	-0.033799842
178	0xbc7dff0a	-0.015502701
179	0xbc8b5dd7	-0.01701252
180	0x3c0552bc	0.008137401
181	0xbcfc3512	-0.030787025
182	0xbcf38bf4	-0.02972982
183	0x3c6079bf	0.0137009015
184	0x3c44cada	0.012011254
185	0xbcad71c4	-0.021172412
186	0xbceae1af	-0.028672067
187	0xbc8a4bc3	-0.01688183
188	0x3ca214ef	0.019785373
189	0xbca232e3	-0.019799655
190	0xbcf4b2fb	-0.0298705
191	0x3c0db6bd	0.008649525
192	0xbdfad83d	-0.122482754
193	0x3bfe5731	0.007761859
194	0xbe9fdb3f	-0.3122196
195	0xbad4149f	-0.0016180462
196	0x3c131a31	0.0089784125
197	0x39f3b9b3	0.00046486928
198	0xbc240475	-0.010010828
199	0xbcc6b7cc	-0.024257563
200	0xbcce4a15	-0.02518181
201	0xbc4d3179	-0.012524002
202	0x3ceb63b3	0.028734064
203	0x3b7f7f8f	0.0038985943
204	0x3cb20296	0.021729749
205	0xbca735cd	-0.020411396
206	0xbd1b25b1	-0.037877742
207	0x3ba3387f	0.0049811
208	0x3c1a5f20	0.009422094
209	0xbe972bd2	-0.2952562
210	0x3c9be760	0.019031227
211	0xbe72d3eb	-0.23713653
212	0xbb41afb9	-0.0029554202
213	0x3ca360f5	0.019943694
214	0xbd02970e	-0.03188234
215	0x3d5952ba	0.05305741
216	0xbae406dc	-0.0017397064
217	0x39d47d1a	0.00040529
218	0xbb00a1ff	-0.0019627807
219	0x3ba297d3	0.0049619465
220	0xbc71719f	-0.014736562
221	0x3c29938d	0.01035012
222	0xbc7d59ec	-0.015463334
223	0xbc2367d6	-0.009973487
224	0xbb5376d3	-0.003226687
225	0xbc0e0a84	-0.008669499
226	0x3c380f67	0.011234141
227	0xbebd9c42	-0.37033278
228	0xbc9289d1	-0.017887982
229	0xbca1a0da	-0.01973002
230	0x3b8c1452	0.0042748833
231	0xbb29c147	-0.0025902556
232	0xb980b644	-0.0002454986
233	0xbb6dfae4	-0.0036312873
234	0x3b9546ca	0.004555558
235	0xbcb29762	-0.0218007
236	0x3c0ce81d	0.008600262
237	0xbb88a49c	-0.0041700136
238	0xbb8dae60	-0.0043237656
239	0xbc7577bc	-0.01498216
240	0xbd91382c	-0.07090792
241	0xbc88ea76	-0.016713362
242	0xbe99481e	-0.29937834
243	0xba4f329f	-0.00079039665
244	0xbba9f53e	-0.005186706
245	0x3c2afbd7	0.01043602
246	0x3bb6dfc8	0.005580876
247	0x3c210b38	0.009829335
248	0x3cfec545	0.031099925
249	0x3c6eab74	0.014567245
250	0x3c1771e1	0.009243459
251	0xbc284106	-0.010269409
252	0x3dbe264c	0.09284648
253	0x3ca66e5b	0.020316293
254	0xbbcdca36	-0.006280209
255	0xbca2b744	-0.019862778

main1.10.weight f4 [3]
0	0x3f198de9	0.5998216
1	0x3ef98ebe	0.48741716
2	0x3ef0a99a	0.47004396

main1.10.bias f4 [3]
0	0x3a0b3cb1	0.0005311473
1	0x3bb4f4ef	0.0055223624
2	0xba900606	-0.0010988123

main1.10.running_mean f4 [3]
0	0xbb9a7015	-0.0047130683
1	0x3a915160	0.0011086874
2	0xbc09948e	-0.008397235

main1.10.running_var f4 [3]
0	0x3e8840e7	0.26612017
1	0x3e930d4a	0.28721076
2	0x3eb50d19	0.35361555
